models/cars_on_fire.tflite (tflite, 206964 bytes, 9 tensors)

arith.constant f4 [1, 32]
0	0xbeae4d72	-0.3404346
1	0xbebad52c	-0.36490762
2	0x3e7aaca3	0.24479918
3	0x3e82553b	0.2545565
4	0xbea6ed89	-0.326031
5	0xbeabe009	-0.33569363
6	0xbea94944	-0.3306371
7	0x3e28cdaf	0.16484712
8	0x3d66230a	0.05618576
9	0x3e626f2d	0.22112723
10	0xbea9d774	-0.3317219
11	0x3c10eec2	0.008845987
12	0xbcb8e19e	-0.02256852
13	0x3e79c952	0.24393204
14	0x3e722272	0.23645952
15	0x3e935fab	0.28783926
16	0x3e4dde40	0.20104313
17	0x3e49969f	0.19686364
18	0x3dd85b97	0.105643444
19	0xbec5521a	-0.385392
20	0xbeba2e0f	-0.36363265
21	0x3df7b447	0.12094932
22	0x3e11c42f	0.14234994
23	0xbeb2f9b2	-0.34956127
24	0x3dba38f8	0.09092897
25	0x3e8168ad	0.25275174
26	0x3e114749	0.1418735
27	0x3da5e2eb	0.08099922
28	0xbd8d5d93	-0.069026135
29	0x3e9b82a4	0.30373108
30	0x3e1dae60	0.1539855
31	0xbeb20c8e	-0.34775203

arith.constant1 f4 [32, 32]
0	0x3b0cb169	0.002146805
1	0x3e0d54de	0.13801906
2	0xbdfe97e7	-0.12431317
3	0x3d245a1d	0.040125
4	0xbbc332ea	-0.005956997
5	0x3c5387dd	0.01291081
6	0x3d15bf53	0.036559414
7	0xbd21e442	-0.039524324
8	0x3d83c6d1	0.064344056
9	0xbdb55a1b	-0.08855077
10	0xbd877cc5	-0.06615595
11	0x3e04219f	0.1290345
12	0x3d1a067d	0.037603844
13	0x3deb893f	0.11500787
14	0x3d94d40b	0.072670065
15	0xbbfd079e	-0.0077218553
16	0x3e2d6352	0.16932419
17	0x3c5e5846	0.013570851
18	0xbe529580	-0.20564842
19	0xbe31db33	-0.17368774
20	0x3d65472f	0.05597609
21	0xbe67dec3	-0.2264357
22	0xbdeb02b5	-0.11475126
23	0x3d9273c9	0.071509905
24	0x3df908ec	0.12159905
25	0xbe00489b	-0.12527697
26	0x3dd2fc67	0.10302048
27	0xbd68970b	-0.05678467
28	0xbc35abf2	-0.011088358
29	0xbe4aca78	-0.19803798
30	0xbe099d19	-0.13438834
31	0x3e100c3d	0.14067169
32	0x3da8cd94	0.08242336
33	0x3dde4294	0.108525425
34	0x3e0c7278	0.13715541
35	0xbe128211	-0.14307429
36	0x3d85da05	0.065357246
37	0xbcac99b9	-0.021069394
38	0x3e4a291a	0.19742242
39	0x3e096eb0	0.1342113
40	0x3c9a7807	0.018856062
41	0x3cac1c1b	0.021009495
42	0x3dfe25d6	0.124095604
43	0x3dab147a	0.08353515
44	0xbdccb690	-0.099957585
45	0xbe3f567c	-0.18685335
46	0x3ded87d0	0.1159817
47	0x3b967f20	0.004592791
48	0x3c1d0dd5	0.009585817
49	0x3df55a57	0.119801216
50	0x3da74adc	0.08168575
51	0x3dd71286	0.1050158
52	0xbd12cc82	-0.035839565
53	0xbcd0dee6	-0.025496911
54	0xbe28cfaf	-0.16485475
55	0xbb0362d2	-0.0020047915
56	0x3cd2c214	0.02572731
57	0xbd36850b	-0.044560473
58	0x3b4b25f6	0.0030997968
59	0xbd92f2a0	-0.07175183
60	0x3cfb41cf	0.030671028
61	0x3ceb714a	0.028740544
62	0x3d378b98	0.04481086
63	0xbd5ce165	-0.05392589
64	0xbd577eb0	-0.052611053
65	0xbd50f184	-0.051011577
66	0xbccbee9e	-0.024894055
67	0x3e41cbd4	0.1892541
68	0xbd3190af	-0.04335087
69	0x3de0cfa9	0.10977108
70	0xbd8cfe7a	-0.06884475
71	0x3db1a6ca	0.086743906
72	0x3def4d4d	0.11684666
73	0x3dae86b2	0.08521785
74	0x3e438566	0.19093856
75	0xbde5fb4f	-0.11229574
76	0xbcf11310	-0.029428035
77	0xbd9e7d26	-0.07738714
78	0xbc381682	-0.011235835
79	0xbdfb58fa	-0.1227283
80	0xbd377970	-0.044793546
81	0xbc88e86c	-0.01671239
82	0x3e49c0d7	0.19702469
83	0x3e1fb2a4	0.1559549
84	0x3dd98bb9	0.10622353
85	0x3d831dc6	0.06402163
86	0x3dbb027c	0.09131333
87	0x3dd43054	0.1036078
88	0xbd1aa976	-0.037759267
89	0x3bcc7d29	0.006240506
90	0xbdd6a41d	-0.10480521
91	0x3e1c0156	0.15234885
92	0x3df872bc	0.12131259
93	0x3cca47c0	0.024692416
94	0x3dbc91c1	0.09207488
95	0xbdd7172a	-0.10502465
96	0x3e2a56db	0.16634695
97	0x3d817d3d	0.063227154
98	0x3da6951c	0.08133909
99	0x3dd53e95	0.10412327
100	0xbdc92cbe	-0.09822987
101	0xbd9df07d	-0.07711885
102	0x3d758733	0.05994339
103	0x3d5e8d88	0.054334193
104	0x3d0f49d0	0.034982502
105	0xbde1cc98	-0.11025351
106	0x3d3185ca	0.04334048
107	0x3dd6a21c	0.10480139
108	0xbd8ba441	-0.06818438
109	0x3dd006fa	0.10157581
110	0x3d719b4b	0.05898599
111	0x3c8e1d15	0.017347852
112	0xbd7286d8	-0.05921063
113	0x3e051d2d	0.12999411
114	0x3d4b673f	0.04965901
115	0x3e248f24	0.16070229
116	0xbdcac346	-0.09900527
117	0x3d364324	0.044497624
118	0x3daa1143	0.08304074
119	0x3d1ee7e5	0.03879537
120	0xbe014cd6	-0.12626967
121	0xbcb8a22d	-0.022538269
122	0x3d925ae0	0.07146239
123	0x3dfa0c25	0.12209348
124	0x3e02501b	0.1272587
125	0x3e1a4b50	0.15067792
126	0x3e269363	0.16267161
127	0x3d615d3e	0.055020563
128	0xbe130c53	-0.1436017
129	0xbc23bac5	-0.00999326
130	0xbdd22b27	-0.10262137
131	0x3d24411e	0.040101163
132	0xbd73a1da	-0.059480526
133	0xbe68e849	-0.2274486
134	0x3e2480f8	0.16064823
135	0xbd321717	-0.04347905
136	0x3d97f1a5	0.07419137
137	0x3e37442c	0.178971
138	0xbe4be8eb	-0.1991307
139	0xbd60723d	-0.054796446
140	0xbb18e8df	-0.0023332161
141	0x3a47cdac	0.0007621895
142	0x3e4a55de	0.19759318
143	0xbe108ab3	-0.1411541
144	0x3dfa1adc	0.12212154
145	0xbe12dd31	-0.1434219
146	0x3aa7c95d	0.00128011
147	0xbd3c79f2	-0.046014734
148	0x3db4b6a2	0.08823897
149	0x3dc15f77	0.094420366
150	0x3d74147d	0.05958985
151	0xbe0e3118	-0.13885915
152	0xbccb2f45	-0.024802813
153	0xbda7af79	-0.08187766
154	0x3dabb025	0.08383206
155	0x3e086c9c	0.13322681
156	0x3dbc05c8	0.0918079
157	0xbd289c92	-0.041164942
158	0xbe1409a4	-0.14456803
159	0xbdb1f85c	-0.08689949
160	0xbe34b9d1	-0.17649008
161	0x3d8677b6	0.06565802
162	0x3c0728d3	0.008249479
163	0x3d22ba20	0.039728284
164	0x3dadf093	0.084931515
165	0x3d23bcad	0.039974857
166	0x3d56acf3	0.05241103
167	0xbccc78df	-0.02495998
168	0xbe15f281	-0.14643289
169	0x3e24e04c	0.16101187
170	0xbdb36353	-0.08759179
171	0x3e07b3e7	0.13252221
172	0x3dafaded	0.085780956
173	0x3a292b86	0.0006453324
174	0xbdb39a29	-0.08769638
175	0xbe3ab743	-0.18233971
176	0x3e34ae7f	0.1764469
177	0xbc95eeef	-0.018302409
178	0xbe4484e1	-0.19191314
179	0x3d23a064	0.039947882
180	0x3c2c6c07	0.010523803
181	0xbe407834	-0.18795854
182	0xbca84ff6	-0.02054594
183	0xbdc48ec9	-0.095975466
184	0xbdf5b78d	-0.119979
185	0xbdd1a5a0	-0.102366686
186	0xbdd311e4	-0.10306147
187	0xbce0401d	-0.027374322
188	0xbc97ec3c	-0.018545263
189	0x3cec08e8	0.02881284
190	0xbc486b11	-0.012232558
191	0xbd4c8352	-0.049929924
192	0x3ddf16e0	0.10893035
193	0xbca01b3b	-0.019544234
194	0x3e497191	0.19672228
195	0xbe3d4bdc	-0.1848597
196	0xbdc9719b	-0.09836122
197	0xbd748ca4	-0.059704438
198	0x3e168e26	0.14702663
199	0xbde41319	-0.11136455
200	0xbe59811d	-0.21240659
201	0x3e5b3729	0.2140776
202	0xbc325c49	-0.01088626
203	0x3d8672ec	0.06564888
204	0xbd9e695c	-0.077349395
205	0x3d189c88	0.037258655
206	0xbd53665c	-0.05161129
207	0xbb293299	-0.0025817512
208	0x3d25f8ba	0.040520407
209	0xbaae6e9c	-0.0013308111
210	0xbd84c74d	-0.06483326
211	0x3d929a05	0.07158283
212	0x3dc0d310	0.09415257
213	0x3d9c4ef0	0.07632244
214	0xbc5bbc83	-0.013411644
215	0xbe085e6c	-0.13317269
216	0x3ccb8945	0.024845729
217	0x3dc57a07	0.096424155
218	0xbb0da2e0	-0.0021611974
219	0xbe098f9b	-0.13433687
220	0x3c3866bb	0.011254962
221	0xbe2df020	-0.16986132
222	0xbd050086	-0.032471202
223	0xbd93cffc	-0.07217404
224	0x3e1b3484	0.15156752
225	0x3df00177	0.117190294
226	0xbdfd6d9f	-0.12374424
227	0x3e5b5a5f	0.21421193
228	0xbc287d5a	-0.010283792
229	0x3e63896e	0.22220394
230	0xbe0b6531	-0.1361282
231	0xbc8a70b8	-0.016899452
232	0x3e471c38	0.19444358
233	0x3dbff1c8	0.09372288
234	0xbd12b933	-0.03582115
235	0xbe4819b4	-0.19541055
236	0xbdc20821	-0.09474207
237	0xbd33947e	-0.043842785
238	0xbcef68bd	-0.029224748
239	0xbe0ed882	-0.13949779
240	0x3b27a620	0.0025581196
241	0x3d9cd4cb	0.076577745
242	0x3d4b05bf	0.049566027
243	0x3d00f105	0.031479854
244	0x3d2d1271	0.042253915
245	0x3e54b531	0.20772244
246	0xbb0b44a2	-0.0021250625
247	0x3dace2e1	0.08441711
248	0x3dd75a67	0.1051529
249	0x3d8f2b53	0.06990685
250	0xbe55eaa2	-0.20890287
251	0x3e0a2ad1	0.13492896
252	0xbdaef957	-0.085436516
253	0xbc8b56b5	-0.017009119
254	0x3d17df0f	0.03707796
255	0x3e1952d4	0.14973003

arith.constant2 f4 [32, 1536]
0	0x3b12a682	0.0022377078
1	0x3cf38fb5	0.02973161
2	0x3cabe74e	0.020984318
3	0xbd0c2330	-0.034213245
4	0x3ac36d31	0.0014909861
5	0xbcb3c426	-0.021944117
6	0x3bb0a49d	0.005390717
7	0xbcbd3a1e	-0.023099001
8	0xbb2bb93c	-0.0026202938
9	0x3c9a90c3	0.018867856
10	0x3bf422f9	0.007450458
11	0xbc4c3d3a	-0.012465769
12	0xbcbcc158	-0.023041412
13	0xbca66168	-0.020310119
14	0x3ac1ca57	0.0014785033
15	0x3c1973b5	0.009365966
16	0xbc407fa6	-0.011749184
17	0xbcca1199	-0.024666594
18	0xbc2d78de	-0.010587899
19	0xbb765fa9	-0.003759364
20	0xbc935c61	-0.017988386
21	0xbbdf1294	-0.0068076346
22	0xbc9518cf	-0.018200306
23	0xbd04fe07	-0.03246882
24	0xbc801268	-0.015633777
25	0x3ce78bb8	0.028264865
26	0x3c18d7be	0.009328781
27	0x3b66430c	0.0035135178
28	0x3c09b9bd	0.0084061
29	0xbcd07bc4	-0.025449641
30	0xbc89bee5	-0.016814658
31	0x3c6a28df	0.014291971
32	0xbc848521	-0.016176762
33	0xbb96a4c1	-0.004597277
34	0xbc89bbbc	-0.016813152
35	0xbb0b472a	-0.0021252134
36	0xbcc15ffd	-0.023605341
37	0x3b9d6ab4	0.00480398
38	0x3d0ef3dd	0.034900535
39	0xbceae6d0	-0.028674513
40	0xbc0441b7	-0.008072308
41	0x3ca34ec0	0.019935012
42	0x3c1c052d	0.009522718
43	0x3c00c579	0.007859581
44	0x3b192367	0.0023367049
45	0x3cfdb042	0.030967835
46	0x3b08156b	0.002076472
47	0x3ce1c1df	0.027558265
48	0x3c8dc054	0.017303623
49	0xbc1686fe	-0.009187458
50	0xbbf436b5	-0.0074528106
51	0xbc8c4cb0	-0.017126411
52	0xbc369550	-0.011143997
53	0x3d03354e	0.032033257
54	0xbccf542d	-0.025308693
55	0xbc180b67	-0.009280062
56	0x3b1c1ecd	0.002382207
57	0x3c242b50	0.010020092
58	0x3c71aac4	0.014750186
59	0xbaf9155d	-0.0019003559
60	0xbc4f4f3b	-0.012653167
61	0x3d23dce5	0.040005583
62	0x3c3b9c32	0.011450814
63	0xbc18a468	-0.009316541
64	0x3cdd2c00	0.02699852
65	0x3cac91a0	0.021065533
66	0x3d04dd1f	0.03243744
67	0xbce3c3aa	-0.02780326
68	0xbcf05303	-0.029336458
69	0x3d0d3623	0.034475457
70	0xbce67759	-0.028133081
71	0x3ba8d889	0.005152766
72	0x3cd085ef	0.02545449
73	0xbc447e4d	-0.011993003
74	0xbc729370	-0.01480566
75	0x3c881609	0.01661207
76	0xbb1947e2	-0.0023388793
77	0xbc045889	-0.008077749
78	0x3c1ba222	0.009499105
79	0x3c107c90	0.0088187605
80	0xbce9b2fb	-0.028527727
81	0x3c9ba40f	0.018999128
82	0xbbd5b50e	-0.0065218275
83	0x39d208c7	0.0004006086
84	0x3c56f863	0.013120743
85	0xbc5ae918	-0.013361238
86	0xbd040ef6	-0.03224083
87	0x3b038825	0.0020070162
88	0xbaea3275	-0.001786782
89	0xbc4fe29b	-0.012688304
90	0x3a599367	0.0008299858
91	0xbca40960	-0.020024002
92	0xbcb5948d	-0.022165561
93	0x3c8554b4	0.016275741
94	0xbbf12eb2	-0.007360303
95	0x3cb5a1c4	0.022171862
96	0xbd103d97	-0.035214987
97	0x3d0e6cbb	0.034771662
98	0xbcd49310	-0.025949031
99	0x3a0cce0a	0.00053712784
100	0x3c3e5d1e	0.011618881
101	0x3a8a4355	0.0010548631
102	0xbc799165	-0.015232419
103	0x3cffa0fd	0.031204695
104	0xbb9910f4	-0.0046712104
105	0xbccbad78	-0.02486299
106	0xbcc59567	-0.024119092
107	0x3c20bb76	0.009810319
108	0xbc3a59fb	-0.011373992
109	0x3cd8d186	0.026467096
110	0x3cc8b49f	0.02450019
111	0xbcbbb09e	-0.022911366
112	0x3b18ebc5	0.002333389
113	0x3af6a83e	0.0018818451
114	0xbb6f3078	-0.0036497395
115	0xbc40fa0f	-0.011778369
116	0x3c6bd807	0.014394767
117	0x3cf20f76	0.029548388
118	0x3b15bfa4	0.0022849822
119	0xbc6c422c	-0.0144200735
120	0x3b8ea776	0.004353459
121	0xbc9f23c0	-0.019426227
122	0xbbbe3a87	-0.005805317
123	0xbb5af73d	-0.0033411526
124	0xbbe07b47	-0.0068506333
125	0xbc197cbf	-0.009368121
126	0xbc8511d1	-0.016243847
127	0x3c5150ae	0.012775583
128	0x3b91363c	0.004431514
129	0xbcc768bf	-0.024341939
130	0x3c9eb7e1	0.01937479
131	0x3c6e036f	0.014527186
132	0xbc7b7d98	-0.015349768
133	0x3d07236f	0.032992776
134	0x3c5b4a6e	0.013384445
135	0x3ca9da93	0.020734107
136	0xba9bbb79	-0.0011881433
137	0x3c11122d	0.008854431
138	0x3b8e765d	0.004347606
139	0x3c82c8f8	0.01596497
140	0x3c12b7bd	0.008954939
141	0x3c173228	0.009228267
142	0xbba89c27	-0.005145568
143	0xbc41f70c	-0.011838686
144	0x3b714d87	0.0036819892
145	0x3cc44dd6	0.023962896
146	0x3ceac926	0.028660368
147	0xbbc8b16f	-0.0061246674
148	0x3c12235f	0.008919566
149	0x3d17d77d	0.03707074
150	0x3c1fcb23	0.009753021
151	0x3ba9116a	0.0051595466
152	0x3a957c41	0.0011404828
153	0xbc354afe	-0.011065243
154	0x3cc6d6ca	0.024272341
155	0xbc9bd3c1	-0.01902187
156	0xbb024974	-0.0019880207
157	0x3c10ec3e	0.008845387
158	0x3c2f48dd	0.010698524
159	0xb9fc6e87	-0.00048147535
160	0xbc90add7	-0.017661018
161	0x3a4c9568	0.00078042457
162	0xbc066e99	-0.0082050795
163	0x3b5346e0	0.003223829
164	0xbb74ad00	-0.0037334561
165	0xbcab87a7	-0.020938708
166	0xbcd62ed3	-0.026145374
167	0x3c950c12	0.018194232
168	0xbc8c4827	-0.017124249
169	0xbc600e86	-0.013675338
170	0x3b2a7cf7	0.0026014426
171	0x3d2153df	0.039386626
172	0xbc9fa8bc	-0.019489639
173	0x3ca4873f	0.020084022
174	0xbc6c53d9	-0.014424288
175	0xbbecfa93	-0.007232019
176	0x3c52b1b6	0.012859752
177	0xbc4e5229	-0.012592831
178	0xb937e63b	-0.00017538008
179	0x3bd57ce2	0.0065151313
180	0x3b792ad2	0.0038019908
181	0xbbc537cc	-0.0060186144
182	0xbb4fb667	-0.0031694414
183	0xbc16fe81	-0.009215952
184	0x3d0e9d5b	0.034818035
185	0xbad09135	-0.0015912416
186	0x3b185831	0.0023245926
187	0xbcab4244	-0.020905621
188	0x3c955d06	0.018232834
189	0x3c9755a0	0.018473446
190	0xbc46b473	-0.012127983
191	0xb91ef046	-0.00015157563
192	0x3c269a7b	0.010168667
193	0x3cc28604	0.023745544
194	0x3c7e42d9	0.015518867
195	0x3afcf206	0.0019298203
196	0xbc1ccfaa	-0.009570995
197	0xbbee7c30	-0.007277988
198	0x3c03e18f	0.008049383
199	0xbc02182c	-0.007940333
200	0xbc1450ef	-0.009052499
201	0x3cc34aa4	0.023839302
202	0xbc50f683	-0.0127540855
203	0x3c8e811e	0.017395552
204	0x3b8745e6	0.0041282056
205	0x3cc2eccc	0.023794554
206	0x3bafde2c	0.005367061
207	0x3bdfe2a8	0.0068324395
208	0xbc82b450	-0.01595512
209	0xbc43452d	-0.011918348
210	0xbc085612	-0.008321302
211	0xba1f8e2e	-0.0006086555
212	0x3c9842a3	0.018586462
213	0x3cae431d	0.021272236
214	0x3cd9b865	0.026577184
215	0xbb069788	-0.0020537097
216	0xbca94b59	-0.020665811
217	0xb9c92d60	-0.00038371515
218	0x3c0afc89	0.008483061
219	0xbba3d865	-0.0050001615
220	0x3c0dc300	0.008652449
221	0xbc7ed267	-0.0155530935
222	0x3c0e5cd9	0.008689129
223	0x3c0546c9	0.008134552
224	0x3ca7134e	0.020394947
225	0x3be6b01e	0.007040038
226	0x3ba17581	0.0049273376
227	0x3a386905	0.0007034692
228	0x3c86b9f9	0.0164461
229	0xbba37c56	-0.0049891872
230	0x3c98b42c	0.0186406
231	0x3c39bcaa	0.011336485
232	0x3b4d1b38	0.0031296741
233	0xb79458f7	-1.7684402e-05
234	0x3c7f7e5b	0.01559409
235	0xbc77a4b1	-0.015114949
236	0xbc85bfc7	-0.016326798
237	0x3d31d484	0.04341556
238	0xbc3d7be6	-0.011565184
239	0x3c6ff0c9	0.01464481
240	0x3c191ec9	0.009345719
241	0xbc583390	-0.013195887
242	0xbc629582	-0.013829591
243	0x3c8d8c3e	0.017278787
244	0xbc818727	-0.015811516
245	0xbbbf8343	-0.005844505
246	0xba7bdeb9	-0.00096080784
247	0x3c01e984	0.00792921
248	0xbc003a03	-0.007826331
249	0xbc83c592	-0.01608542
250	0x3c1a7613	0.009427565
251	0x3b880d25	0.0041519576
252	0xbc0fa0fa	-0.008766407
253	0x3cf98bf1	0.030462237
254	0xbd064684	-0.032782093
255	0x3c9d312f	0.019188492

model_8/tf.__operators__.add/AddV2/y f4 [32]
0	0xbc3dc965	-0.011583661
1	0x3c88eb14	0.016713656
2	0x3cc45f26	0.023971152
3	0xbca623aa	-0.020280678
4	0x3b10da28	0.0022102688
5	0x3c23fc38	0.010008864
6	0x3ba712ce	0.0050986772
7	0x3c071a18	0.008245967
8	0x3c9899a3	0.018627947
9	0xbbf54161	-0.0074846004
10	0xbcf25d58	-0.029585525
11	0x3aced740	0.0015780702
12	0xbc554dd6	-0.013019046
13	0xbc991786	-0.018687975
14	0x3d05cf13	0.032668184
15	0x3c987966	0.018612575
16	0x3d13aa3d	0.036051024
17	0xbbcf8b25	-0.006333726
18	0x3caefc06	0.021360409
19	0x3c9c146d	0.019052709
20	0x3cebebf2	0.02879903
21	0xbc61af3a	-0.013774687
22	0x3bddc359	0.006767672
23	0x3cb724db	0.022356441
24	0xbba2eeb6	-0.004972304
25	0xb9d409bd	-0.00040443047
26	0x3b8665d3	0.004101494
27	0xbba5f8f4	-0.005065078
28	0xbc8bfc74	-0.017088152
29	0xbc922d18	-0.017843768
30	0xbc7767d6	-0.01510044
31	0x3c95a179	0.018265473

model_8/tf.__operators__.add_1/AddV2/y f4 [32]
0	0x3ae6e8ea	0.0017617021
1	0xbe2929dd	-0.16519876
2	0xbcc1655f	-0.023607908
3	0xbd812277	-0.06305402
4	0x3deed681	0.11662007
5	0x3e04ca5f	0.12967823
6	0xbe1bec99	-0.15226974
7	0xbe2d0e75	-0.16900046
8	0xbd9f4513	-0.07776847
9	0x3e0638d9	0.13107623
10	0x3decc7f9	0.11561579
11	0x3ddaf26d	0.1069077
12	0x3c8ce617	0.01719956
13	0xbc854e3e	-0.01627266
14	0x3e267a28	0.16257536
15	0xbb9ce5c5	-0.004788133
16	0x3e0ed240	0.13947392
17	0xbcbc1666	-0.0229599
18	0xb9f1fa63	-0.00046153655
19	0xbe171288	-0.14753163
20	0x3d32983e	0.04360222
21	0xbe24b6f9	-0.16085424
22	0xbdf1c15b	-0.11804458
23	0x3d8b7384	0.06809142
24	0xbda8280e	-0.08210765
25	0xbde7cb8b	-0.113181196
26	0xbd8d870d	-0.069105245
27	0x3c5c2b6a	0.013438085
28	0xbe1af0a6	-0.15130863
29	0xbdbee73e	-0.0932145
30	0x3e1451ca	0.14484325
31	0x3e0d718d	0.13812847

model_8/tf.math.add_2/Add/y f4 [1, 32]
0	0xbcc7e5f8	-0.02440165
1	0x3b136810	0.0022492446
2	0x3d542112	0.05178935
3	0xbd9671ce	-0.07345925
4	0x3c21d783	0.009878042
5	0x3c52c762	0.012864919
6	0x3ca33c76	0.019926291
7	0x3d3d9452	0.046284027
8	0xbc6ecb8c	-0.014574897
9	0x3c009725	0.007848536
10	0x3915e665	0.00014295576
11	0x3c325bc3	0.0108861355
12	0x3a8f1bc8	0.0010918314
13	0x3cc27dea	0.023741681
14	0xbb15e539	-0.0022872223
15	0x3d153391	0.03642613
16	0x3bffce80	0.007806599
17	0x3c73a799	0.014871501
18	0x396d681f	0.0002264087
19	0xbcfcba4d	-0.030850554
20	0x3c0b7893	0.008512634
21	0x3c694973	0.014238703
22	0x3c8d3da5	0.017241308
23	0x3c093600	0.008374691
24	0xbb6e9ab3	-0.0036408126
25	0x3bd709f9	0.006562468
26	0x3c0af72e	0.008481784
27	0x3ba868a4	0.0051394273
28	0xbcb60eee	-0.022223916
29	0x3b67a47e	0.0035345848
30	0x3c5dc56f	0.013535841
31	0xbc9ef46e	-0.019403663

model_8/tf.math.add_5/Add/y f4 [1, 32]
0	0x3e80feb9	0.25194338
1	0x3e7968da	0.24356404
2	0x3dd0493d	0.10170219
3	0x3d8d6e26	0.06905775
4	0x3e80c8ca	0.2515319
5	0x3e88d1f1	0.26722673
6	0x3e82754d	0.25480118
7	0x3cc94e41	0.024573447
8	0x3b9f7294	0.0048659537
9	0x3d516179	0.051118348
10	0x3e8efdbb	0.27927956
11	0xbb0c48bd	-0.002140566
12	0xbe153faa	-0.14575067
13	0x3e06765d	0.1313109
14	0x3dd1b039	0.1023869
15	0x3d975ad5	0.07390372
16	0x3dedfdbf	0.11620664
17	0x3d8defc1	0.06930495
18	0x3d69052c	0.056889698
19	0x3e7b2cdd	0.24528833
20	0x3e7088c8	0.23489678
21	0x3db0416b	0.086062275
22	0x3d545b47	0.05184486
23	0x3e84c098	0.25928187
24	0x3ca4104e	0.020027306
25	0x3df75b89	0.12078006
26	0x3db3fba1	0.08788229
27	0x3d3bc5c9	0.04584292
28	0xbd15535e	-0.03645646
29	0x3dce09a5	0.10060433
30	0x3d99ba4d	0.07506237
31	0x3e79cf2f	0.2439544

model_8/tf.math.multiply_10/Mul/y f4 [1, 32]
0	0x3f7a679b	0.9781434
1	0x3f72db79	0.9486614
2	0x3f837317	1.0269498
3	0x3f737914	0.95106626
4	0x3f7aca09	0.9796453
5	0x3f8122e9	1.0088779
6	0x3f7dfbbf	0.9921226
7	0x3f82023b	1.0156931
8	0x3f82d89e	1.0222356
9	0x3f834249	1.0254604
10	0x3f81cee9	1.0141269
11	0x3f7d4b08	0.98942614
12	0x3f689432	0.9085113
13	0x3f863232	1.0484068
14	0x3f77af3a	0.9675175
15	0x3f7f3e68	0.997046
16	0x3f87b50a	1.0602124
17	0x3f81bb88	1.0135355
18	0x3f85b0a1	1.0444528
19	0x3f73c928	0.95228815
20	0x3f8423ef	1.0323466
21	0x3f82fc00	1.0233154
22	0x3f838d24	1.0277448
23	0x3f7d8c23	0.99041957
24	0x3f7520bc	0.95753074
25	0x3f801806	1.0007331
26	0x3f795ecc	0.97410274
27	0x3f7b74b2	0.9822494
28	0x3f75c8c8	0.9600949
29	0x3f82c8af	1.0217494
30	0x3f7dd71d	0.9915636
31	0x3f7771de	0.9665812

model_8/tf.math.multiply_22/Mul/y f4 [1, 32]
0	0x3fa3544b	1.2760099
1	0x3fa44fcf	1.2836856
2	0x3f8c5ef0	1.0966473
3	0x3f8a2939	1.079383
4	0x3fa44b00	1.2835388
5	0x3fa8ca2a	1.3186696
6	0x3fa252ee	1.2681558
7	0x3f898b4a	1.0745633
8	0x3f8143e0	1.0098839
9	0x3f885896	1.0652034
10	0x3fab23da	1.3370316
11	0x3f7c9db5	0.9867814
12	0x3f5d7f18	0.86522055
13	0x3f913185	1.1343237
14	0x3f8c8764	1.0978818
15	0x3f8fade0	1.1224937
16	0x3f9403e3	1.1563686
17	0x3f8b3a7a	1.0877221
18	0x3f8d417a	1.1035607
19	0x3f9f3c2a	1.2440236
20	0x3f9ca5a2	1.2238047
21	0x3f8a2f38	1.079566
22	0x3f8ff1ef	1.1245707
23	0x3fa6869b	1.3009828
24	0x3f863643	1.0485309
25	0x3f9911a4	1.1958508
26	0x3f8cb7a4	1.0993543
27	0x3f84d708	1.0378122
28	0x3f799884	0.97498345
29	0x3f910a12	1.1331198
30	0x3f92451f	1.1427344
31	0x3fa36ee0	1.2768211
