models/hit_the_aw_button.tflite (tflite, 206964 bytes, 9 tensors)

arith.constant f4 [1, 32]
0.04917819 -0.39105642 -0.417901 0.38239726 0.18762192 -0.44186857 0.34856 0.3230682
0.3687183 0.26696852 0.035111714 -0.33245125 -0.36680344 0.35534823 0.19461222 0.26443043
-0.42336822 0.13026166 0.33018655 0.07995779 0.37739474 0.32804093 0.31594902 0.26648867
-0.39173386 0.314743 0.34086242 -0.37927753 -0.014630762 0.33074924 0.15507019 -0.41410774
00000000: 126f 493d 8c38 c8be 1ff7 d5be 93c9 c33e
00000010: f61f 403e 993c e2be 7576 b23e 3269 a53e
00000020: a5c8 bc3e 19b0 883e 4dd1 0f3d 0d37 aabe
00000030: a9cd bbbe 34f0 b53e 6d48 473e 6d63 873e
00000040: b8c3 d8be 5063 053e 360e a93e e9c0 a33d
00000050: e239 c13e fbf4 a73e 12c4 a13e 3471 883e
00000060: 5791 c8be ff25 a13e 8585 ae3e aa30 c2be
00000070: ddb5 6fbc f757 a93e b8ca 1e3e ee05 d4be

arith.constant1 f4 [32, 32]
-0.08702118 -0.033049 -0.007131203 0.03081863 -0.0991184 -0.10609634 -0.077941045 -0.06581377
-0.14161357 -0.03536244 0.0634242 0.07034981 0.028545056 0.18046568 -0.12350661 -0.08575581
0.034741208 -0.10199021 -0.026932236 -0.02273996 0.04469334 -0.088478014 0.025165549 -0.10295598
-0.13066956 0.10068045 0.044960786 -0.019687727 0.030903406 -0.05668778 -0.030776782 0.039300986
-0.05066058 -0.10070312 0.19653139 0.04436378 0.008381422 -0.05132177 -0.0066791526 -0.24562241
0.039892983 0.21030581 0.041885216 -0.12614813 0.09454629 0.047655888 -0.034078732 -0.07433961
0.014741981 -0.12902054 0.061352007 0.08485207 -0.025469432 -0.015320384 0.052596353 -0.13345072
-0.02994666 -0.0540559 0.081760496 -0.14431176 0.07337943 0.09438679 -0.023163166 0.18624003
-0.09113076 0.08556806 0.10955783 -0.1462809 -0.10349567 -0.10908146 -0.04411469 -0.24637212
-0.09843765 0.060269073 -0.07321959 -0.12522249 0.13150941 0.08597085 -0.17091341 0.05661315
-0.13839746 -0.04792966 0.027502585 0.11921036 -0.10666755 0.076558724 0.15886143 0.14493723
-0.109844536 -0.13303682 -0.035031848 -0.053122077 0.15321921 0.07098825 0.024369694 0.036614634
-0.14836647 -0.05909139 -0.10602129 0.1391731 0.0710718 -0.07246172 0.053449556 0.24285477
-0.09101254 -0.13596468 -0.06453528 0.011507924 -0.14486298 -0.1395763 0.003700077 0.0133408
0.10082495 -0.024974756 -0.031095311 -0.12297318 0.096589044 0.06953875 -0.062400106 0.11661754
-0.112506546 0.23140228 -0.046539444 0.138822 -0.019004678 0.09821801 0.08746302 -0.05437729
0.091459356 -0.092354804 -0.07839924 -0.013845501 0.05429994 0.07148306 0.11413896 0.03925342
-0.2278441 0.03419287 -0.013434851 0.07272976 -0.06748584 -0.008192814 0.060864147 0.09773699
-0.13425091 0.054419946 0.15719366 -0.11646697 0.1141382 0.057764046 -0.021107491 0.08210252
0.02829109 -0.056763012 -0.05061323 0.15347908 0.09399072 0.03072794 0.113562144 -0.09377597
0.09056393 -0.08894466 0.041114483 -0.019235041 -0.1725205 0.01937274 0.111102134 -0.2821545
-0.031483226 0.0143449735 0.05794611 0.02403945 -0.042348962 0.05269952 -0.15709077 0.17871037
-0.09131923 0.16525498 0.093612336 0.054393627 -0.100369275 0.05751048 0.100718416 0.09296312
-0.111549966 -0.036321912 0.061235316 -0.15098223 0.07483189 -0.14323097 0.050163656 0.13289404
0.13599753 0.18719207 -0.02250446 0.13747261 0.1957305 -0.00887642 -0.075046964 0.31982213
0.14092231 0.047420725 0.05555317 -0.100607134 0.0968552 0.12815234 0.2943531 0.0023680734
-0.10575103 0.03218294 0.16431005 -0.11949586 -0.0029077842 0.09471708 -0.084065914 0.114356525
0.07957843 -0.044893224 -0.03921566 0.118829735 -0.17653042 -0.044225246 -0.028746726 -0.11667126
-0.09994907 0.09473437 -0.104159206 -0.186927 0.15116037 0.075967856 0.08870018 0.09911317
0.15812324 -0.048817944 0.012155406 0.18006817 -0.10657679 0.027009802 0.009232624 -0.023622992
0.006578396 -0.030030971 -0.035593517 0.05722751 0.03715317 0.056673348 -0.044215113 -0.07409058
0.10626811 0.19681679 -0.13232388 0.14034593 0.080433555 0.11840817 0.024720168 0.054696478
00000000: 2938 b2bd 635e 07bd deac e9bb 5a77 fc3c
00000010: 96fe cabd 0a49 d9bd 8e9f 9fbd 5fc9 86bd
00000020: 2603 11be 35d8 10bd 8ce4 813d 9013 903d
00000030: 52d7 e93c ffcb 383e 09f1 fcbd bea0 afbd
00000040: cc4c 0e3d 3ee0 d0bd fea0 dcbc 2749 babc
00000050: 5d10 373d f633 b5bd fb27 ce3c 96da d2bd
00000060: 3ece 05be 8d31 ce3d cd28 383d 2848 a1bc
00000070: 2429 fd3c 7231 68bd 971f fcbc 12fa 203d
00000080: 7881 4fbd 703d cebd 863f 493e ccb6 353d
00000090: 3b52 093c c736 52bd cbdc dabb 7184 7bbe
000000a0: d366 233d 685a 573e d58f 2b3d fa2c 01be
000000b0: 7ca1 c13d d232 433d 2496 0bbd 5e3f 98bd
000000c0: 5a88 713c f61d 04be 3e4c 7b3d ecc6 ad3d
000000d0: 45a5 d0bc 5902 7bbc 466f 573d 4ea7 08be
000000e0: b352 f5bc b869 5dbd 0c72 a73d 76c6 13be
000000f0: f447 963d dd4d c13d aec0 bdbc b5b5 3e3e
00000100: c4a2 babd 4f3e af3d db5f e03d a9ca 15be
00000110: 8af5 d3bd 1a66 dfbd 9bb1 34bd f948 7cbe
00000120: ae99 c9bd b4dc 763d 27f4 95bd 533a 00be
00000130: 67aa 063e 7c11 b03d ed03 2fbe 31e3 673d
00000140: 10b8 0dbe e451 44bd 1a4d e13c 9024 f43d
00000150: 8474 dabd d2ca 9c3d 92ac 223e 6d6a 143e
00000160: 2cf6 e0bd ce3a 08be 8e7d 0fbd 8996 59bd
00000170: 7fe5 1c3e 4a62 913d f4a2 c73c 3af9 153d
00000180: 61ed 17be d009 72bd b121 d9bd 6583 0e3e
00000190: 188e 913d cf66 94bd eced 5a3d ecae 783e
000001a0: c864 babd 533a 0bbe 132b 84bd bb8b 3c3c
000001b0: f656 14be 17ed 0ebe fe7c 723b 5f93 5a3c
000001c0: 507d ce3d dc97 ccbc 98bb febc 5dd9 fbbd
000001d0: 7ad0 c53d 556a 8e3d 4197 7fbd 2dd5 ee3d
000001e0: d569 e6bd b8f4 6c3e 25a0 3ebd 5b27 0e3e
000001f0: b3af 9bbc 8626 c93d d01f b33d b9ba 5ebd
00000200: 0b4f bb3d 8424 bdbd c88f a0bd 3dd8 62bc
00000210: 9d69 5e3d b665 923d b0c1 e93d 32c8 203d
00000220: f74f 69be d30d 0c3d d91d 5cbc 57f3 943d
00000230: 0436 8abd 273b 06bc af4c 793d 552a c83d
00000240: 1279 09be 73e7 5e3d 60f7 203e 3c86 eebd
00000250: 4ac1 e93d fe99 6c3d 9ee9 acbc 5e25 a83d
00000260: b7c2 e73c 5580 68bd d14f 4fbd 9f29 1d3e
00000270: 357e c03d 29b9 fb3c 4593 e83d 9e0d c0bd
00000280: 9579 b93d 9e28 b6bd a967 283d ce92 9dbc
00000290: 37a9 30be 95b3 9e3c 8489 e33d 8e76 90be
000002a0: 8ef4 00bd 2e07 6b3c e658 6d3d 61ee c43c
000002b0: 1b76 2dbd 74db 573d 67dc 20be daff 363e
000002c0: 9405 bbbd 9a38 293e d3b7 bf3d dacb 5e3d
000002d0: 688e cdbd 1c90 6b3d 7545 ce3d 7363 be3d
000002e0: 4f74 e4bd 49c6 14bd e2d1 7a3d 169b 1abe
000002f0: 7641 993d 24ab 12be 6878 4d3d 6015 083e
00000300: f042 0b3e 47af 3f3e 465b b8bc 9fc5 0c3e
00000310: 946d 483e 676e 11bc 39b2 99bd babf a33e
00000320: f04d 103e 3c3c 423d b98b 633d 1d0b cebd
00000330: 055c c63d 5e3a 033e 73b5 963e ae31 1b3b
00000340: ff93 d8bd 42d2 033d e540 283e 3fba f4bd
00000350: 8690 3ebb 07fb c13d c02a acbd c133 ea3d
00000360: 04fa a23d f5e1 37bd 9aa0 20bd 015d f33d
00000370: 64c4 34be 8825 35bd 417e ebbc 57f1 eebd
00000380: 19b2 ccbd 1804 c23d 6c51 d5bd cb69 3fbe
00000390: c9c9 1a3e 0995 9b3d 71a8 b53d d8fb ca3d
000003a0: 0feb 213e 53f5 47bd 7827 473c ca63 383e
000003b0: ef44 dabd a943 dd3c 6f44 173c 0185 c1bc
000003c0: 968f d73b 8303 f6bc 82ca 11bd 6567 6a3d
000003d0: ec2d 183d 5022 683d e81a 35bd cdbc 97bd
000003e0: 18a3 d93d 578a 493e e97f 07be d8b6 0f3e
000003f0: 59ba a43d fc7f f23d f381 ca3c 6a09 603d

arith.constant2 f4 [32, 1536]
-0.033021286 0.00953195 -0.010557871 0.008019349 0.003203502 -0.019285396 0.014043235 0.026896494
-0.04186413 0.03688955 -0.013492123 -0.010221105 -0.04975732 0.023963537 -0.004167523 -0.008181773
-0.010147046 0.006974228 -0.017701209 -0.006302215 -0.037455805 -0.010629384 0.021446176 0.017077627
-0.0036250518 -0.020393267 -0.0036924765 -0.036585364 -0.029003605 0.0031988474 0.0053695566 -0.001304446
0.019587714 -0.04288159 -0.015462926 0.0105962455 -0.024615956 0.031168718 0.036163446 -0.014437357
0.024790859 0.049419135 -0.017320538 -0.0035238818 -0.010737045 -0.018324608 -0.011016401 -0.01019222
-0.022910234 0.034625024 0.013949764 -0.03505107 -0.0034850882 0.03157695 0.03618113 -0.0019746202
-0.0112062 0.0040740045 -0.019799184 0.028842459 -0.013475735 -0.014939503 0.016057808 -0.00011496363
0.024315476 -0.008059547 -0.0031535334 -0.017601546 0.007319959 -0.017969117 0.013265511 0.039120678
0.029653855 0.0048291017 -0.009383573 0.02669468 0.021795312 0.040541235 0.012393895 -0.002621811
0.020465134 -0.0124201495 0.03493055 0.013368051 -0.02000286 -0.0062701763 0.0030042734 -0.058970507
-0.007848383 -0.008014476 -0.010418877 -0.0019089143 0.010053968 -0.0013578066 -0.006395375 -0.032929394
-0.03738898 0.0035447155 -0.002505736 0.030163145 -0.007006528 0.00027792147 -0.027632395 0.016221903
-0.0406034 0.027178878 0.004031103 -0.038287982 -0.05816559 -0.015757076 -0.00036936803 -0.03505418
0.022943914 0.0512839 0.0016041169 -0.02400894 -0.008635373 0.03666441 0.016129946 0.018130898
-0.00842205 0.014018891 0.0011392329 -0.019877046 -0.019764742 -0.013646598 0.014282606 0.0071456367
-0.0058418666 -0.06642092 0.014835154 -0.034534268 0.026775233 0.00878485 -0.007464118 0.007972452
-0.006392642 -0.006736634 -0.008499782 0.020632498 -0.018222678 -0.009359397 0.010594345 0.019465595
-0.009333482 0.01982639 -0.0045438064 -0.015494673 -0.024060054 -0.0044388585 0.021168984 0.011489508
0.036757376 -0.016941192 -0.012847825 -0.0017973642 -0.011058107 -0.011950714 -0.002667924 0.022699805
0.029852387 0.024879253 -0.026220411 -0.00033593577 -0.014302674 0.00958737 0.04249067 0.03302069
-0.014154405 0.03518791 -0.013413352 0.027025804 0.0120955175 0.032357298 0.0062679895 -0.02075373
0.01745792 0.03126323 0.023537926 0.0033798043 0.0041792598 -0.00033148794 0.014264792 -0.032342304
-0.005571722 -0.016128728 0.011240741 -0.009124234 0.0057843477 0.026378127 0.011802018 -0.014138172
-0.03650569 -0.0008561817 0.010856026 -0.029788898 0.018214121 0.0064283703 -0.04211079 -0.00034339097
0.0041052615 0.024470586 0.025524173 -0.043714494 -0.003363899 -0.0023095259 0.01812999 -0.013221362
0.01984361 -0.016043842 0.010396524 0.022116812 0.015372978 -0.00759733 -0.01639928 0.039173745
0.0084056575 -0.025182646 0.0015335394 0.02278649 -0.01749071 -0.0062010926 0.023955192 0.019667994
-0.024726253 -0.015947051 0.004153959 -0.05200449 0.031161934 0.016960662 -0.0013223275 0.016422505
0.008842091 0.02758251 -0.01740047 0.02314822 0.017356671 -0.013119428 -0.0030813962 0.037017386
0.00734843 0.046958953 -0.009930659 -0.010335875 -0.00954045 0.034239866 0.0020772158 0.002354858
0.010341441 0.007925456 -0.022615656 0.037630007 -0.030195625 -0.019109098 -0.0008590573 -0.0005332413
00000000: 5441 07bd e52b 1c3c ecfa 2cbc 9663 033c
00000010: d8f1 513b 68fc 9dbc 9915 663c 0956 dc3c
00000020: b979 2bbd 7f19 173d 110e 5dbc 6c76 27bc
00000030: 55ce 4bbd 2e4f c43c b78f 88bb d80c 06bc
00000040: cc3f 26bc 1188 e43b 2002 91bc d082 cebb
00000050: 426b 19bd de26 2ebc e4af af3c 61e6 8b3c
00000060: 4792 6dbb c80f a7bc 7afd 71bb 89da 15bd
00000070: f898 edbc c1a3 513b 1bf3 af3b f2f9 aaba
00000080: 6a76 a03c 9ba4 2fbd 3658 7dbc e09b 2d3c
00000090: 67a7 c9bc 8a55 ff3c 1f20 143d aa8a 6cbc
000000a0: 3316 cb3c b86b 4a3d cde3 8dbc edf0 66bb
000000b0: 6eea 2fbc 7d1d 96bc 237e 34bc 45fd 26bc
000000c0: 3eae bbbc f8d2 0d3d 8d8d 643c b691 0fbd
000000d0: 1466 64bb d556 013d aa32 143d a168 01bb
000000e0: 369a 37bc 3a7f 853b e631 a2bc 0547 ec3c
000000f0: 54c9 5cbc d1c4 74bc aa8b 833c a118 f1b8
00000100: 4031 c73c 310c 04bc 83ab 4ebb 1e31 90bc
00000110: 44dc ef3b f833 93bc 9657 593c 013d 203d
00000120: a4ec f23c 713d 9e3b 8fbd 19bc cdae da3c
00000130: 158c b23c 910e 263d c30f 4b3c b1d2 2bbb
00000140: 7fa6 a73c e27d 4bbc 5613 0f3d ab05 5b3c
00000150: 0add a3bc 0d76 cdbb 58e3 443b 0f8b 71bd
00000160: 8196 00bc 264f 03bc f0b3 2abc 8934 faba
00000170: 66b9 243c 6ef8 b1ba 4b90 d1bb f9e0 06bd
00000180: 3025 19bd 754e 683b 4637 24bb b318 f73c
00000190: 0497 e5bb fdb5 9139 555d e2bc cce3 843c
000001a0: c04f 26bd 3da6 de3c 5817 843b dcd3 1cbd
000001b0: 0b3f 6ebd fc14 81bc bda7 c1b9 f994 0fbd
000001c0: e0f4 bb3c 110f 523d 3b41 d23a 66ae c4bc
000001d0: 617b 0dbc 6c2d 163d f322 843c 4087 943c
000001e0: a3fc 09bc 7eaf 653c 5052 953a 30d5 a2bc
000001f0: abe9 a1bc fb95 5fbc 9701 6a3c f225 ea3b
00000200: 216d bfbb b107 88bd 250f 733c ce73 0dbd
00000210: bc57 db3c 55ee 0f3c 8f95 f4bb e39e 023c
00000220: 5e79 d1bb fbbe dcbb ab42 0bbc 7c05 a93c
00000230: ba47 95bc 2858 19bc e793 2d3c 5076 9f3c
00000240: 76eb 18bc f46a a23c 36e4 94bb 5edd 7dbc
00000250: 9719 c5bc d873 91bb 946a ad3c 7d3e 3c3c
00000260: e78e 163d 41c8 8abc af7f 52bc 8995 ebba
00000270: 102d 35bc edcc 43bc 56d8 2ebb f1f4 b93c
00000280: fe8c f43c 93cf cb3c 30cc d6bc 8920 b0b9
00000290: c355 6abc 5814 1d3c b20a 2e3d b440 073d
000002a0: e1e7 67bc 3321 103d adc3 5bbc 3865 dd3c
000002b0: 472c 463c 1689 043d b563 cd3b ba03 aabc
000002c0: e903 8f3c df0d 003d 9cd2 c03c b57f 5d3b
000002d0: 2cf2 883b 8fcb adb9 e0b6 693c 5d79 04bd
000002e0: fe92 b6bb 6520 84bc 162b 383c d07d 15bc
000002f0: a08a bd3b f116 d83c 405d 413c cba3 67bc
00000300: fe86 15bd 6271 60ba 79dd 313c d907 f4bc
00000310: c835 953c 14a5 d23b 5d7c 2cbd 2809 b4b9
00000320: 6e85 863b 8a76 c83c 1218 d13c f80d 33bd
00000330: dc74 5cbb 6a5b 17bb 5885 943c 699e 58bc
00000340: 118f a23c 606e 83bc 2f56 2a3c 512e b53c
00000350: f1de 7b3c 06f3 f8bb c857 86bc a674 203d
00000360: e2b7 093c d64b cebc 0b01 c93a bcaa ba3c
00000370: ad48 8fbc 8932 cbbb ae3d c43c c61e a13c
00000380: b68e cabc 64a3 82bc ef1d 883b a902 55bd
00000390: 5047 ff3c 16f1 8a3c f351 adba 7d88 863c
000003a0: 6bde 103c b7f4 e13c 6e8b 8ebc 56a1 bd3c
000003b0: 942f 8e3c dff2 56bc 40f1 49bb 8b9f 173d
000003c0: 19cb f03b 0858 403d 34b4 22bc cd57 29bc
000003d0: 8c4f 1cbc 1a3f 0c3d e621 083b f653 1a3b
000003e0: 266f 293c c6d9 013c 7844 b9bc ec21 1a3d
000003f0: d15c f7bc af8a 9cbc 5c32 61ba 38c9 0bba

model_8/tf.__operators__.add/AddV2/y f4 [32]
0.027926806 -0.006333599 0.019392518 -0.008813472 -0.017789405 0.011164828 0.00906117 0.013330291
-0.034037538 -0.010239702 -0.027066812 0.0011942226 0.008118788 -0.0022663637 -0.0083921 -0.0044168322
0.0019315132 -0.018037062 0.016153928 0.032593463 0.016838899 -0.028416717 -0.007530916 0.036104765
0.012841796 0.0044403803 0.03098251 0.014075129 0.012511613 -0.028432632 -0.021460304 0.003574185
00000000: c2c6 e43c 148a cfbb 0fdd 9e3c 6266 10bc
00000010: 16bb 91bc afec 363c 4d75 143c 4b67 5a3c
00000020: f26a 0bbd 6cc4 27bc 38bb ddbc 7687 9c3a
00000030: aa04 053c 4687 14bb 057f 09bc 13bb 90bb
00000040: d42a fd3a 76c2 93bc 3e55 843c b980 053d
00000050: bbf1 893c 2dca e8bc e7c5 f6bb 97e2 133d
00000060: 6566 523c 9c80 913b 08cf fd3c 5f9b 663c
00000070: 82fd 4c3c 8deb e8bc 85cd afbc e03c 6a3b

model_8/tf.__operators__.add_1/AddV2/y f4 [32]
0.19665536 0.007940902 0.025715746 0.16404113 -0.024437184 0.009065451 -0.13234563 -0.06547893
-0.16282152 0.013175162 0.0183938 0.10647518 0.07507275 -0.1130715 -0.111428715 0.017018896
0.12996219 0.061783034 -0.03711838 0.14860837 0.087501645 -0.08270281 0.01666558 -0.11148114
-0.04461374 0.051500965 -0.14400513 0.030055996 0.1014111 0.0792414 -0.11742402 0.120059125
00000000: 0660 493e 8f1a 023c d4a9 d23c 66fa 273e
00000010: 7d30 c8bc 4287 143c 9d85 07be d119 86bd
00000020: afba 26be a2dc 573c 98ae 963c a90f da3d
00000030: bebf 993d 0892 e7bd bd34 e4bd 366b 8b3c
00000040: cf14 053e 3510 7d3d 7109 18bd cb2c 183e
00000050: 1034 b33d 1760 a9bd 4186 883c 3950 e4bd
00000060: e6bc 36bd adf2 523d 1576 13be fe37 f63c
00000070: 9fb0 cf3d 5149 a23d 017c f0bd 8fe1 f53d

model_8/tf.math.add_2/Add/y f4 [1, 32]
-0.025448892 -0.0016467525 -0.008068246 0.0340705 -0.03517406 -0.042731795 -0.02482075 -0.009745412
0.21338694 0.0072454005 0.13343106 -0.013924279 -0.0031292841 0.01630693 0.198524 0.015817974
0.03355851 -0.03245355 -0.015950698 0.031821936 -0.027495993 -0.029618504 0.010700505 0.0031472668
0.016263552 -0.043006357 0.020858128 -0.0049595106 0.01712442 0.00043854772 -0.037879534 0.019736812
00000000: 327a d0bc d8d7 d7ba ad30 04bc 828d 0b3d
00000010: ad12 10bd 8907 2fbd e354 cbbc 38ab 1fbc
00000020: 1b82 5a3e d36a ed3b 27a2 083e a922 64bc
00000030: ad14 4dbb 1c96 853c e049 4b3e b294 813c
00000040: a674 093d 03ee 04bd 0aab 82bc b857 023d
00000050: 473f e1bc 81a2 f2bc 2c51 2f3c 6042 4e3b
00000060: 243b 853c 6f27 30bd aade aa3c 6483 a2bb
00000070: 8348 8c3c e1ec e539 9227 1bbd 18af a13c

model_8/tf.math.add_5/Add/y f4 [1, 32]
-0.029750748 0.22260143 0.20598507 0.13060291 0.04870883 0.2077268 0.1722287 0.14376256
0.09043326 0.10558112 -0.078541294 0.24846421 0.18627559 0.16004753 0.1654181 0.08153674
0.21954846 0.012828237 0.19572295 0.0070020673 0.11853816 0.1335857 0.045338884 0.1566813
0.23444003 0.17013197 0.20059384 0.19071132 -0.069321975 0.09792169 0.07880893 0.21444497
00000000: d7b7 f3bc a1f1 633e c0ed 523e c5bc 053e
00000010: e982 473d 56b6 543e b85c 303e 7e36 133e
00000020: 1335 b93d ea3a d83d 42da a0bd 676d 7e3e
00000030: 07bf 3e3e 80e3 233e 5d63 293e bcfc a63d
00000040: 50d1 603e 872d 523c 996b 483e 9971 e53b
00000050: 23c4 f23d b1ca 083e 44b5 393d 1071 203e
00000060: 0c11 703e 1337 2e3e 7968 4d3e d449 433e
00000070: aef8 8dbd 2b8b c83d 9466 a13d 7697 5b3e

model_8/tf.math.multiply_10/Mul/y f4 [1, 32]
0.97403514 0.9493251 1.0514096 0.99595374 0.9778904 0.9282936 0.9792831 1.139937
1.13061 0.96771556 1.1235723 1.0101758 0.9513591 1.0215728 1.0425653 1.00733
0.94953775 0.93606186 1.0054939 1.004479 0.94892997 0.97453845 1.022341 0.95074356
0.96325684 1.0509157 0.9809204 1.0733469 1.0220029 1.0524008 0.9497101 0.9958166
00000000: 5e5a 793f f806 733f 9794 863f d3f6 7e3f
00000010: 0657 7a3f a6a4 6d3f 4cb2 7a3f 75e9 913f
00000020: d4b7 903f 35bc 773f 38d1 8f3f 714d 813f
00000030: 458c 733f e6c2 823f c872 853f 30f0 803f
00000040: e814 733f c0a1 6f3f 06b4 803f c592 803f
00000050: 13ed 723f 5a7b 793f 12dc 823f ee63 733f
00000060: 0098 763f 6884 863f 991d 7b3f 6e63 893f
00000070: fed0 823f 12b5 863f 3320 733f d6ed 7e3f

model_8/tf.math.multiply_22/Mul/y f4 [1, 32]
0.99019754 1.2848432 1.3022677 1.3603634 1.15544 1.3097316 1.303079 1.1616307
1.2295233 1.2229187 0.9788381 1.3281851 1.2299418 1.3222517 1.2068578 1.2436727
1.2800882 1.10976 1.2808182 1.0517085 1.2131486 1.1740396 1.1574837 1.2093669
1.3940735 1.2845099 1.2131963 1.2505171 0.9549488 1.1924794 1.1532774 1.3150471
00000000: 967d 7d3f be75 a43f b5b0 a63f 6320 ae3f
00000010: 75e5 933f 49a5 a73f 4bcb a63f 51b0 943f
00000020: 0561 9d3f 9a88 9c3f 2295 7a3f f801 aa3f
00000030: bc6e 9d3f 8b3f a93f 517a 9a3f ab30 9f3f
00000040: eed9 a33f 9e0c 8e3f daf1 a33f 629e 863f
00000050: 7448 9b3f ee46 963f 6d28 943f 89cc 9a3f
00000060: 0071 b23f d26a a43f 044a 9b3f f210 a03f
00000070: 8677 743f 2aa3 983f 989e 933f 7753 a83f
